…
model1 = Sequential()
model1.add(Convolution2D(8, (3,3), activation='relu', input_shape=(64,64,3)))
model1.add(MaxPool2D(2,2))
model1.add(Convolution2D(16, (3,3), activation='relu'))
model1.add(MaxPool2D(2,2))
#fully connected layer
model1.add(Flatten())
model1.add(Dense(100, activation='relu'))
model1.add(Dense(3, activation='softmax'))

model1.summary()
Model: "sequential_15"
_________________________________________________________________
Layer (type)                 Output Shape              Param #   
=================================================================
conv2d_12 (Conv2D)           (None, 62, 62, 8)         224       
_________________________________________________________________
max_pooling2d_10 (MaxPooling (None, 31, 31, 8)         0         
_________________________________________________________________
conv2d_13 (Conv2D)           (None, 29, 29, 16)        1168      
_________________________________________________________________
max_pooling2d_11 (MaxPooling (None, 14, 14, 16)        0         
_________________________________________________________________
flatten_4 (Flatten)          (None, 3136)              0         
_________________________________________________________________
dense_6 (Dense)              (None, 100)               313700    
_________________________________________________________________
dense_7 (Dense)              (None, 3)                 303       
=================================================================
Total params: 315,395
Trainable params: 315,395
Non-trainable params: 0
_________________________________________________________________
In [40]:
from keras.models import Sequential
from keras.layers.core import Flatten
from keras.layers.core import Dense

model = Sequential(
    [
        Flatten(input_shape=(64*64*3,)),
        Dense(100, activation="relu", name="layer1"),
        Dense(16, activation="relu", name="layer2"),
        Dense(16, activation="relu", name="layer3"),
        Dense(3, activation = "softmax", name="layer4"),
    ]
)
In [ ]:
model.summary()
Model: "sequential"
_________________________________________________________________
Layer (type)                 Output Shape              Param #   
=================================================================
flatten (Flatten)            (None, 12288)             0         
_________________________________________________________________
layer1 (Dense)               (None, 100)               1228900   
_________________________________________________________________
layer2 (Dense)               (None, 16)                1616      
_________________________________________________________________
layer3 (Dense)               (None, 16)                272       
_________________________________________________________________
layer4 (Dense)               (None, 3)                 51        
=================================================================
Total params: 1,230,839
Trainable params: 1,230,839
Non-trainable params: 0
_________________________________________________________________
In [43]:
# train the model using the Adam optimizer
print("[INFO] training network...")
opt = Adam(lr=1e-3, decay=1e-3 / 50)
model1.compile(loss="categorical_crossentropy", optimizer=opt, metrics=["accuracy"])
…
